# YOLOv5 🚀 by Ultralytics, GPL-3.0 license

# Parameters
nc: 4 # number of classes
depth_multiple: 1  # model depth multiple
width_multiple: 1  # layer channel multiple
anchors:
  - [ 10,13, 16,30, 33,23 ]  # P3/8
  - [ 30,61, 62,45, 59,119 ]  # P4/16
  - [ 116,90, 156,198, 373,326 ]  # P5/32

# YOLOv5 v6.0 backbone
backbone:
  # [from, number, module, args]
  [ [ -1, 1, CoAtBlock, [ 64, 2, 320, 'None' ] ],  # 0-P1/2
    [ -1, 1, CoAtBlock, [ 96, 2, 160, 'C' ] ],  # 1-P2/4
    [ -1, 1, CoAtBlock, [ 196, 3, 80, 'C' ] ],  # 2-P3/8
    [ -1, 1, CoAtBlock, [ 384, 5, 40, 'T' ] ],  # 3-P4/16
    [ -1, 1, CoAtBlock, [ 768, 2, 20, 'T' ] ],  # 4-P5/32
  ]

# YOLOv5 v6.0 head
head:
  [ [ -1, 1, Conv, [ 256, 1, 1 ] ],  # 5
    [ -1, 1, nn.Upsample, [ None, 2, 'nearest' ] ],  # 6
    [ [ -1, 3 ], 1, Concat, [ 1 ] ],  # 7 cat backbone P4
    [ -1, 1, C3, [ 256, False ] ],  # 8

    [ -1, 1, Conv, [ 128, 1, 1 ] ],  # 9
    [ -1, 1, nn.Upsample, [ None, 2, 'nearest' ] ],  # 10
    [ [ -1, 2 ], 1, Concat, [ 1 ] ],  # 11 cat backbone P3
    [ -1, 1, C3, [ 128, False ] ],  # 12 (P3/8-small)

    [ -1, 1, Conv, [ 128, 3, 2 ] ],  # 13
    [ [ -1, 9 ], 1, Concat, [ 1 ] ],  # 14 cat head P4
    [ -1, 1, C3, [ 256, False ] ],  # 15 (P4/16-medium)

    [ -1, 1, Conv, [ 256, 3, 2 ] ],  # 16
    [ [ -1, 5 ], 1, Concat, [ 1 ] ],  # 17 cat head P5
    [ -1, 1, C3, [ 512, False ] ],  # 18 (P5/32-large)

    [ [ 12, 15, 18 ], 1, Detect, [ nc, anchors ] ],  # Detect(P3, P4, P5)
  ]
